public/models/E_model.tflite (tflite, 16600 bytes, 9 tensors)

tfl.pseudo_qconst1 i1 [2, 64] scale=0.0028844557 zero_point=0
00000000: a393 a2b6 4e30 16bf 33f6 c498 22fd a256
00000010: 21bf 4391 9ab9 5314 e618 33fd 4a18 1b8f
00000020: 5581 1c60 154c 3d3b f25c 39ce d96b e14b
00000030: 5d48 a55f f028 4482 2aa7 8eec 32ad eea4
00000040: 1171 3d62 ddff 517e c0d2 425e a998 7821
00000050: c017 d603 664d fda8 8fb2 da9a 2779 fe54
00000060: 884a d4b1 6a48 fcf8 a9a1 8a68 35e9 42c8
00000070: f3d7 f9f7 4d1d ef62 94f3 3730 ddfe 10d9
-0.26825437 -0.31440568 -0.27113885 -0.21344972 0.22498755 0.13845387 0.063458025 -0.18748963
0.14710724 -0.028844558 -0.17306735 -0.29998338 0.09807149 -0.008653367 -0.27113885 0.24806319
0.09518704 -0.18748963 0.19325854 -0.32017457 -0.2942145 -0.20479636 0.23940982 0.057689115
-0.074995846 0.069226936 0.14710724 -0.008653367 0.21344972 0.069226936 0.07788031 -0.3259435
0.24517873 -0.36632589 0.08076476 0.27690774 0.06057357 0.21921864 0.1759518 0.17018288
-0.04038238 0.26536992 0.16441397 -0.14422278 -0.112493776 0.30863675 -0.08941813 0.21633418
0.26825437 0.2076808 -0.26248547 0.2740233 -0.04615129 0.11537823 0.19614299 -0.3634414
0.12114714 -0.25671655 -0.32882795 -0.057689115 0.14422278 -0.23940982 -0.0519202 -0.26536992
0.049035747 0.3259435 0.1759518 0.28267667 -0.10095595 -0.0028844557 0.23364091 0.3634414
-0.18460517 -0.13268496 0.19037408 0.27113885 -0.25094765 -0.29998338 0.3461347 0.09518704
-0.18460517 0.06634248 -0.12114714 0.008653367 0.2942145 0.22210309 -0.008653367 -0.2538321
-0.3259435 -0.22498755 -0.10960932 -0.2942145 0.112493776 0.34901914 -0.0057689114 0.24229428
-0.3461347 0.21344972 -0.12691605 -0.227872 0.3057523 0.2076808 -0.011537823 -0.023075646
-0.25094765 -0.2740233 -0.34036577 0.29998338 0.15287615 -0.06634248 0.19037408 -0.16152953
-0.037497923 -0.118262686 -0.02019119 -0.0259601 0.22210309 0.08364922 -0.049035747 0.28267667
-0.31152123 -0.037497923 0.15864506 0.13845387 -0.10095595 -0.0057689114 0.04615129 -0.112493776

tfl.pseudo_qconst3 i1 [64, 32] scale=0.0015795567 zero_point=0
00000000: f62e 1532 d725 27e6 72c0 b205 df31 d31b
00000010: 3de6 e3d5 12e9 defe 1620 11fa 50ea 0d1a
00000020: fc0f da25 da13 04ec e4d5 1709 422d 2f43
00000030: eae7 1d1b 1ae9 e117 24d5 f3fe 3638 0804
00000040: ee09 03de 31d9 cb00 47dc 4e07 0c20 bc33
00000050: 11e4 0915 2f1f f10f fd08 fefb 0fd6 4118
00000060: d231 f02f edd0 28ed c0ce c3f6 b6d7 d762
00000070: 121b 02d9 30c1 ffe5 2e68 1415 1b4b 5bf6
00000080: e6ea f7f2 f4ff fdf8 07e2 0c0e e8e9 04dd
00000090: 0c01 ec07 0b07 1aff ecfd eef4 e5e3 f1ec
000000a0: e0ea e7db 1de0 e9f2 1ed4 1bf0 edfb df13
000000b0: f9e5 ddee 0a06 2ff7 09e2 fbe6 fdf0 24d8
000000c0: 2d08 2f1d eb2a 3a2f f5e4 120a ad1a 24f0
000000d0: ec22 031a 111c 2827 ff27 24fd b109 30d3
000000e0: d527 28de 331e fbc2 2b31 0ced 35dd 29d1
000000f0: 2412 2207 1231 fce4 0d27 2005 24f7 ebc8
-0.015795568 0.07265961 0.033170693 0.07897784 -0.064761825 0.0584436 0.06160271 -0.041068476
0.18006946 -0.10109163 -0.12320542 0.007897784 -0.052125372 0.07739828 -0.07108005 0.042648032
0.09635296 -0.041068476 -0.045807146 -0.06792094 0.02843202 -0.036329806 -0.05370493 -0.0031591135
0.03475025 0.050545815 0.026852464 -0.009477341 0.12636454 -0.03475025 0.020534238 0.041068476
-0.006318227 0.023693351 -0.060023155 0.0584436 -0.060023155 0.030011578 0.006318227 -0.031591136
-0.04422759 -0.06792094 0.036329806 0.01421601 0.104250744 0.07108005 0.074239165 0.105830304
-0.03475025 -0.03948892 0.045807146 0.042648032 0.041068476 -0.036329806 -0.04896626 0.036329806
0.05686404 -0.06792094 -0.020534238 -0.0031591135 0.085296065 0.08845518 0.012636454 0.006318227
-0.02843202 0.01421601 0.0047386703 -0.05370493 0.07739828 -0.06160271 -0.083716504 0.0
0.11214853 -0.05686404 0.12320542 0.011056897 0.018954681 0.050545815 -0.10740986 0.08055739
0.026852464 -0.04422759 0.01421601 0.033170693 0.074239165 0.04896626 -0.023693351 0.023693351
-0.0047386703 0.012636454 -0.0031591135 -0.007897784 0.023693351 -0.066341385 0.10267119 0.037909362
-0.07265961 0.07739828 -0.025272908 0.074239165 -0.030011578 -0.075818725 0.06318227 -0.030011578
-0.10109163 -0.07897784 -0.09635296 -0.015795568 -0.1168872 -0.064761825 -0.064761825 0.15479656
0.02843202 0.042648032 0.0031591135 -0.06160271 0.075818725 -0.09951207 -0.0015795567 -0.042648032
0.07265961 0.1642739 0.031591136 0.033170693 0.042648032 0.11846676 0.14373966 -0.015795568
-0.041068476 -0.03475025 -0.01421601 -0.022113794 -0.018954681 -0.0015795567 -0.0047386703 -0.012636454
0.011056897 -0.047386702 0.018954681 0.022113794 -0.037909362 -0.036329806 0.006318227 -0.055284485
0.018954681 0.0015795567 -0.031591136 0.011056897 0.017375125 0.011056897 0.041068476 -0.0015795567
-0.031591136 -0.0047386703 -0.02843202 -0.018954681 -0.042648032 -0.045807146 -0.023693351 -0.031591136
-0.050545815 -0.03475025 -0.03948892 -0.0584436 0.045807146 -0.050545815 -0.036329806 -0.022113794
0.047386702 -0.0695005 0.042648032 -0.025272908 -0.030011578 -0.007897784 -0.052125372 0.030011578
-0.011056897 -0.042648032 -0.055284485 -0.02843202 0.015795568 0.009477341 0.074239165 -0.01421601
0.01421601 -0.047386702 -0.007897784 -0.041068476 -0.0047386703 -0.025272908 0.05686404 -0.06318227
0.07108005 0.012636454 0.074239165 0.045807146 -0.033170693 0.066341385 0.09161429 0.074239165
-0.017375125 -0.04422759 0.02843202 0.015795568 -0.1311032 0.041068476 0.05686404 -0.025272908
-0.031591136 0.05370493 0.0047386703 0.041068476 0.026852464 0.04422759 0.06318227 0.06160271
-0.0015795567 0.06160271 0.05686404 -0.0047386703 -0.12478498 0.01421601 0.075818725 -0.07108005
-0.06792094 0.06160271 0.06318227 -0.05370493 0.08055739 0.047386702 -0.007897784 -0.09793252
0.06792094 0.07739828 0.018954681 -0.030011578 0.083716504 -0.055284485 0.064761825 -0.074239165
0.05686404 0.02843202 0.05370493 0.011056897 0.02843202 0.07739828 -0.006318227 -0.04422759
0.020534238 0.06160271 0.050545815 0.007897784 0.05686404 -0.01421601 -0.033170693 -0.08845518

tfl.pseudo_qconst5 i1 [32, 1, 1, 32]
00000000: 2be3 5c62 4aea d534 f43b e0c4 e163 3fcc
00000010: f3fc 2bf5 ec17 1529 2115 2a7f 02d8 d932
00000020: a7f2 69b9 cdc4 722d 7fbc dab4 4c4a 06f5
00000030: 4e5b b7d6 1efa 1544 f1d3 5645 dc60 1f13
00000040: 98ce 2b1d 28e3 1a24 23f4 3a14 2c7f 2c48
00000050: 52a5 47d5 b0ea 0465 f9e3 cfad 5277 3cdd
00000060: 200d 1a3e ea39 729d cb03 910a 157f 188e
00000070: 2df7 59f0 59ea f4de dfa1 1571 ff78 4159
00000080: bc78 4974 5b9d 7f16 dc3c fa34 ee53 3b41
00000090: 4542 af6d 616f 5553 6f18 c4e5 7d20 1339
000000a0: 7fc4 15a0 b0a6 28b1 a9bb 0a5d e6e4 32c7
000000b0: 3519 8973 b84b e8d7 1e9b 8e20 219c cd9d
000000c0: 9f54 eaff 1b45 1353 30a5 ddbe 41e4 3022
000000d0: edd0 ad5a 0b38 1637 c05d 2f95 22df d081
000000e0: 7e23 6cce 20a3 1d6b 3fd2 5447 4733 a614
000000f0: 0270 8c42 29ba e7ca 1d61 e218 6bf0 5681
43 -29 92 98 74 -22 -43 52
-12 59 -32 -60 -31 99 63 -52
-13 -4 43 -11 -20 23 21 41
33 21 42 127 2 -40 -39 50
-89 -14 105 -71 -51 -60 114 45
127 -68 -38 -76 76 74 6 -11
78 91 -73 -42 30 -6 21 68
-15 -45 86 69 -36 96 31 19
-104 -50 43 29 40 -29 26 36
35 -12 58 20 44 127 44 72
82 -91 71 -43 -80 -22 4 101
-7 -29 -49 -83 82 119 60 -35
32 13 26 62 -22 57 114 -99
-53 3 -111 10 21 127 24 -114
45 -9 89 -16 89 -22 -12 -34
-33 -95 21 113 -1 120 65 89
-68 120 73 116 91 -99 127 22
-36 60 -6 52 -18 83 59 65
69 66 -81 109 97 111 85 83
111 24 -60 -27 125 32 19 57
127 -60 21 -96 -80 -90 40 -79
-87 -69 10 93 -26 -28 50 -57
53 25 -119 115 -72 75 -24 -41
30 -101 -114 32 33 -100 -51 -99
-97 84 -22 -1 27 69 19 83
48 -91 -35 -66 65 -28 48 34
-19 -48 -83 90 11 56 22 55
-64 93 47 -107 34 -33 -48 -127
126 35 108 -50 32 -93 29 107
63 -46 84 71 71 51 -90 20
2 112 -116 66 41 -70 -25 -54
29 97 -30 24 107 -16 86 -127

tfl.pseudo_qconst7 i1 [1, 3, 3, 32]
00000000: e0d8 30fe 5bd2 d8b9 3eea 20c1 6530 b481
00000010: 25e3 4c78 9981 421f eba6 333e 8a81 1721
00000020: a8ec 0d57 4415 53c3 5326 08a8 8b1e f493
00000030: 5bd2 8166 4a86 3565 fb92 668b af7d f745
00000040: 4111 15e1 f208 4fc2 1df9 fe9c 867f d926
00000050: a945 dd7f 81f0 a5cb 724d 7f68 60a1 7ff6
00000060: 11af 5b67 ca16 d140 508f dd22 fffa a7c6
00000070: 4108 042d dba8 0e6c 2dfd 5c44 b6c9 5e19
00000080: c24a 3626 7fab 62b6 2f2c 0cf2 7f5d 90f2
00000090: 64e6 b75c 10b3 28d7 16a2 75ba d639 4b19
000000a0: 3c0c 8114 27bf 5a07 20f0 815c c812 f6fb
000000b0: 9f7f 1323 dc96 ce49 40d7 b07f 5dde e73c
000000c0: e381 db7f fe81 817f 7f81 00c9 731c d911
000000d0: 4a3c 2ae7 f735 cd7f ea81 e1f7 eab8 6101
000000e0: 8135 4e28 502b 4a09 2551 9f81 2ff4 8122
000000f0: e857 2f5f 0b2c 8172 dfbd e394 81f8 7581
-32 -40 48 -2 91 -46 -40 -71
62 -22 32 -63 101 48 -76 -127
37 -29 76 120 -103 -127 66 31
-21 -90 51 62 -118 -127 23 33
-88 -20 13 87 68 21 83 -61
83 38 8 -88 -117 30 -12 -109
91 -46 -127 102 74 -122 53 101
-5 -110 102 -117 -81 125 -9 69
65 17 21 -31 -14 8 79 -62
29 -7 -2 -100 -122 127 -39 38
-87 69 -35 127 -127 -16 -91 -53
114 77 127 104 96 -95 127 -10
17 -81 91 103 -54 22 -47 64
80 -113 -35 34 -1 -6 -89 -58
65 8 4 45 -37 -88 14 108
45 -3 92 68 -74 -55 94 25
-62 74 54 38 127 -85 98 -74
47 44 12 -14 127 93 -112 -14
100 -26 -73 92 16 -77 40 -41
22 -94 117 -70 -42 57 75 25
60 12 -127 20 39 -65 90 7
32 -16 -127 92 -56 18 -10 -5
-97 127 19 35 -36 -106 -50 73
64 -41 -80 127 93 -34 -25 60
-29 -127 -37 127 -2 -127 -127 127
127 -127 0 -55 115 28 -39 17
74 60 42 -25 -9 53 -51 127
-22 -127 -31 -9 -22 -72 97 1
-127 53 78 40 80 43 74 9
37 81 -97 -127 47 -12 -127 34
-24 87 47 95 11 44 -127 114
-33 -67 -29 -108 -127 -8 117 -127

tfl.pseudo_qconst9 i1 [32, 1, 1, 16]
00000000: 39f6 6656 d57f 25a3 2b65 d635 32a3 07fd
00000010: 83fa ae02 8cf9 a8e1 2f35 54e9 7fee 5468
00000020: 089c daa3 6d7f c81d a129 04e3 f53b 851a
00000030: 89d8 adad ee99 bc17 1e31 1b5f f181 0eae
00000040: 1afb 8eef b1e3 6f9a c342 e17f 2927 a22e
00000050: 62fe 232d e8a4 0632 d84c bbbf 813f 7d5e
00000060: 8144 bd65 eeb8 50f1 4843 3d5b 7208 bc48
00000070: 81c9 7621 6e09 e2dd 9a92 aa64 d195 5379
00000080: d060 3259 4b98 d35c c88f 0146 c17f 132a
00000090: c4c2 34e3 db38 7f0c 09b2 d94c 5838 5ae1
000000a0: 7935 7fef 201d 6326 7103 42b9 8ddb e5b0
000000b0: 6eb5 23f2 0e3c 0dbb 45c5 cbef bf63 7fe2
000000c0: fac9 f5f6 1a16 b468 e9a5 d081 fe96 65ea
000000d0: f67f 541c c8f6 591b 2364 62ea 3664 9462
000000e0: dcf1 0b6f 5be3 091b 2c35 9851 0b2b 7f46
000000f0: be6d ec86 772b a32c 3a9e fe48 347f 0246
57 -10 102 86 -43 127 37 -93
43 101 -42 53 50 -93 7 -3
-125 -6 -82 2 -116 -7 -88 -31
47 53 84 -23 127 -18 84 104
8 -100 -38 -93 109 127 -56 29
-95 41 4 -29 -11 59 -123 26
-119 -40 -83 -83 -18 -103 -68 23
30 49 27 95 -15 -127 14 -82
26 -5 -114 -17 -79 -29 111 -102
-61 66 -31 127 41 39 -94 46
98 -2 35 45 -24 -92 6 50
-40 76 -69 -65 -127 63 125 94
-127 68 -67 101 -18 -72 80 -15
72 67 61 91 114 8 -68 72
-127 -55 118 33 110 9 -30 -35
-102 -110 -86 100 -47 -107 83 121
-48 96 50 89 75 -104 -45 92
-56 -113 1 70 -63 127 19 42
-60 -62 52 -29 -37 56 127 12
9 -78 -39 76 88 56 90 -31
121 53 127 -17 32 29 99 38
113 3 66 -71 -115 -37 -27 -80
110 -75 35 -14 14 60 13 -69
69 -59 -53 -17 -65 99 127 -30
-6 -55 -11 -10 26 22 -76 104
-23 -91 -48 -127 -2 -106 101 -22
-10 127 84 28 -56 -10 89 27
35 100 98 -22 54 100 -108 98
-36 -15 11 111 91 -29 9 27
44 53 -104 81 11 43 127 70
-66 109 -20 -122 119 43 -93 44
58 -98 -2 72 52 127 2 70

tfl.pseudo_qconst11 i1 [1, 3, 3, 16]
00000000: 3ea4 b3ee d00e 4c39 4dba e007 2411 7f1a
00000010: 71d0 83e8 5061 8d51 ee0c 3b4a bf7a 2f22
00000020: 7f7f 3a10 a588 4efc 812b 7f03 1679 3fc5
00000030: ffc0 1e3b 1f3e 1281 8bd4 5f9d 4ee0 0045
00000040: 24f1 7f43 9145 8147 c1ca 1533 a06e ceba
00000050: 0758 07f6 56c6 ef9d 0a7f 140f 9661 43bb
00000060: 9fe1 a694 1f1c 2f9d 91c2 3f81 b776 893f
00000070: 2ba4 92b5 81de 164b d2a0 433a 817f af81
00000080: 4bf9 0e7f 4b81 6d64 2a7f 08a1 3691 81be
62 -92 -77 -18 -48 14 76 57
77 -70 -32 7 36 17 127 26
113 -48 -125 -24 80 97 -115 81
-18 12 59 74 -65 122 47 34
127 127 58 16 -91 -120 78 -4
-127 43 127 3 22 121 63 -59
-1 -64 30 59 31 62 18 -127
-117 -44 95 -99 78 -32 0 69
36 -15 127 67 -111 69 -127 71
-63 -54 21 51 -96 110 -50 -70
7 88 7 -10 86 -58 -17 -99
10 127 20 15 -106 97 67 -69
-97 -31 -90 -108 31 28 47 -99
-111 -62 63 -127 -73 118 -119 63
43 -92 -110 -75 -127 -34 22 75
-46 -96 67 58 -127 127 -81 -127
75 -7 14 127 75 -127 109 100
42 127 8 -95 54 -111 -127 -66

tfl.pseudo_qconst13 i1 [16, 1, 1, 16]
00000000: cf98 c055 1dda aa7f 0af0 01cd 8a48 7c61
00000010: 4481 0610 9c7e bcc3 6f42 0bd2 9ede 016d
00000020: 8129 fd93 2d60 1f30 4fd0 ff03 eae0 2f79
00000030: 16b1 52e0 01cc 05e9 d34a d8de 8127 361b
00000040: cb23 225c 812c fa5b fabe 14bd 1adc 3605
00000050: 1923 53f6 35d0 d61f 7f77 5f4c ae0c 4b43
00000060: 5930 ca81 7d19 c033 bf25 1d92 05ee 3bc0
00000070: b07e 9146 2ed4 1525 4881 f6e3 6fbe 7472
00000080: 8eea e834 ae03 9f51 c17f 5fef 18e5 3943
00000090: 4e0c 548c 40cc 81ad a97b 006b 6244 b3ef
000000a0: 4aa7 a295 d513 8a62 6ec7 9b17 0081 d814
000000b0: 10fa 35d2 c9ae b140 10ec c77f 17df feac
000000c0: fcff 0bf2 5da4 2986 a28f a781 af2c f636
000000d0: e2f7 1521 0e54 cfae 97e1 811e 0490 11e8
000000e0: 3b8e 0a30 4f2e 1936 b135 dc20 7f70 ad1d
000000f0: c822 21a4 d26c 00b0 ab24 81d8 6110 d3a6
-49 -104 -64 85 29 -38 -86 127
10 -16 1 -51 -118 72 124 97
68 -127 6 16 -100 126 -68 -61
111 66 11 -46 -98 -34 1 109
-127 41 -3 -109 45 96 31 48
79 -48 -1 3 -22 -32 47 121
22 -79 82 -32 1 -52 5 -23
-45 74 -40 -34 -127 39 54 27
-53 35 34 92 -127 44 -6 91
-6 -66 20 -67 26 -36 54 5
25 35 83 -10 53 -48 -42 31
127 119 95 76 -82 12 75 67
89 48 -54 -127 125 25 -64 51
-65 37 29 -110 5 -18 59 -64
-80 126 -111 70 46 -44 21 37
72 -127 -10 -29 111 -66 116 114
-114 -22 -24 52 -82 3 -97 81
-63 127 95 -17 24 -27 57 67
78 12 84 -116 64 -52 -127 -83
-87 123 0 107 98 68 -77 -17
74 -89 -94 -107 -43 19 -118 98
110 -57 -101 23 0 -127 -40 20
16 -6 53 -46 -55 -82 -79 64
16 -20 -57 127 23 -33 -2 -84
-4 -1 11 -14 93 -92 41 -122
-94 -113 -89 -127 -81 44 -10 54
-30 -9 21 33 14 84 -49 -82
-105 -31 -127 30 4 -112 17 -24
59 -114 10 48 79 46 25 54
-79 53 -36 32 127 112 -83 29
-56 34 33 -92 -46 108 0 -80
-85 36 -127 -40 97 16 -45 -90

tfl.pseudo_qconst15 i1 [1, 3, 3, 16]
00000000: 0fc9 7ffd beb2 6081 79b9 42f3 c6ea 5c44
00000010: 445c a78b 4013 f021 317f 52e1 ad3b f539
00000020: 6581 4373 81e0 3938 ce31 897f 1172 81dc
00000030: a316 6bc5 26e5 813b 0953 3e41 74d4 fa63
00000040: 922d 64c8 daa3 1d89 a302 9d9e 8df1 7968
00000050: 0932 4226 ab81 ac6d 8135 1de7 7fab 6df3
00000060: 8148 a2ff 245a 1c41 1152 811e ee7f fbac
00000070: 2738 b7e1 e5e7 e1cb 9329 a3fc 6c12 6cf0
00000080: 1da8 4881 b023 2f14 542b d52f aac8 ce7f
15 -55 127 -3 -66 -78 96 -127
121 -71 66 -13 -58 -22 92 68
68 92 -89 -117 64 19 -16 33
49 127 82 -31 -83 59 -11 57
101 -127 67 115 -127 -32 57 56
-50 49 -119 127 17 114 -127 -36
-93 22 107 -59 38 -27 -127 59
9 83 62 65 116 -44 -6 99
-110 45 100 -56 -38 -93 29 -119
-93 2 -99 -98 -115 -15 121 104
9 50 66 38 -85 -127 -84 109
-127 53 29 -25 127 -85 109 -13
-127 72 -94 -1 36 90 28 65
17 82 -127 30 -18 127 -5 -84
39 56 -73 -31 -27 -25 -31 -53
-109 41 -93 -4 108 18 108 -16
29 -88 72 -127 -80 35 47 20
84 43 -43 47 -86 -56 -50 127

tfl.pseudo_qconst17 i1 [16, 10, 4, 1]
00000000: f939 238f 4a03 86e7 df7f fbfe 0b40 3cd2
00000010: 5b0a bbe2 f259 b22e 5735 1de0 cfb8 9ab2
00000020: 0fc5 ded4 0200 fc29 c7a9 eb20 d2f0 dcdf
00000030: ec06 2122 41cc 04ec f1e3 e708 f43f 6c04
00000040: 25a9 73ae 480d 7ff9 ce40 d1ce f10b fe53
00000050: f52c 8dd3 ab41 0b45 2bc5 ff6a f98e a100
00000060: 1c5d 17dd 652e ecd5 a4ff 5655 a8b6 d809
00000070: b037 d184 1f13 ff81 f438 c4b7 c830 7f2b
00000080: c4f2 3215 c33a f5d4 1be2 13ce b5bb 35aa
00000090: a210 febc 0b69 24e1 1cc1 090b c1b6 232c
000000a0: 1812 3643 f97f 4ae6 0623 f8aa 5963 144e
000000b0: 21b9 5a27 2037 b52c fc51 28fc 9f2d 2632
000000c0: cb3e 33f5 d9b8 af50 84b6 cab1 04eb 70db
000000d0: 086e b7e4 fb11 7f26 864c 0dad cab5 14c4
000000e0: 1a33 c78e dc0d 1838 d9a0 ac57 9aee 4822
000000f0: 2316 25e1 d235 2cd9 7f37 4734 ec5e 2de0
-7 57 35 -113 74 3 -122 -25
-33 127 -5 -2 11 64 60 -46
91 10 -69 -30 -14 89 -78 46
87 53 29 -32 -49 -72 -102 -78
15 -59 -34 -44 2 0 -4 41
-57 -87 -21 32 -46 -16 -36 -33
-20 6 33 34 65 -52 4 -20
-15 -29 -25 8 -12 63 108 4
37 -87 115 -82 72 13 127 -7
-50 64 -47 -50 -15 11 -2 83
-11 44 -115 -45 -85 65 11 69
43 -59 -1 106 -7 -114 -95 0
28 93 23 -35 101 46 -20 -43
-92 -1 86 85 -88 -74 -40 9
-80 55 -47 -124 31 19 -1 -127
-12 56 -60 -73 -56 48 127 43
-60 -14 50 21 -61 58 -11 -44
27 -30 19 -50 -75 -69 53 -86
-94 16 -2 -68 11 105 36 -31
28 -63 9 11 -63 -74 35 44
24 18 54 67 -7 127 74 -26
6 35 -8 -86 89 99 20 78
33 -71 90 39 32 55 -75 44
-4 81 40 -4 -97 45 38 50
-53 62 51 -11 -39 -72 -81 80
-124 -74 -54 -79 4 -21 112 -37
8 110 -73 -28 -5 17 127 38
-122 76 13 -83 -54 -75 20 -60
26 51 -57 -114 -36 13 24 56
-39 -96 -84 87 -102 -18 72 34
35 22 37 -31 -46 53 44 -39
127 55 71 52 -20 94 45 -32
