public/models/N_Enrich_model.tflite (tflite, 16600 bytes, 9 tensors)

tfl.pseudo_qconst1 i1 [2, 64] scale=0.0028600218 zero_point=0
00000000: a192 a1b6 542f 1ac1 3df9 c296 21f9 9f5c
00000010: 20c9 468e 98bf 5c18 e71d 33fc 531a 228b
00000020: 5781 226b 2750 443f f258 3bd7 db6e e548
00000030: 624d a660 ff2a 4183 2aa8 90f3 32ad f3a6
00000040: 0e73 3d66 da05 537d b7ce 4260 a79a 7d24
00000050: be0b d4fd 694e f7a4 82a8 d994 2979 f757
00000060: 8948 cdae 6148 fdfd a3a6 8660 36eb 40c8
00000070: fad7 f2f8 4721 f863 8def 3529 dcf7 09d1
-0.27170208 -0.3146024 -0.27170208 -0.21164161 0.24024183 0.13442102 0.074360564 -0.18018137
0.17446133 -0.020020153 -0.17732134 -0.3031623 0.09438072 -0.020020153 -0.2774221 0.263122
0.0915207 -0.1573012 0.20020153 -0.32604247 -0.29744226 -0.18590142 0.263122 0.06864052
-0.07150055 0.08294063 0.1458611 -0.011440087 0.2373818 0.074360564 0.09724074 -0.33462256
0.2488219 -0.36322278 0.09724074 0.30602232 0.11154085 0.22880174 0.19448148 0.18018137
-0.040040307 0.25168192 0.16874129 -0.117260896 -0.105820805 0.3146024 -0.07722059 0.20592156
0.28028214 0.22022168 -0.25740197 0.2745621 -0.0028600218 0.12012091 0.18590142 -0.35750273
0.12012091 -0.25168192 -0.32032245 -0.037180282 0.1430011 -0.2373818 -0.037180282 -0.25740197
0.040040307 0.3289025 0.17446133 0.2917222 -0.10868083 0.014300109 0.2373818 0.35750273
-0.20878159 -0.1430011 0.18876144 0.2745621 -0.25454193 -0.2917222 0.35750273 0.10296078
-0.18876144 0.03146024 -0.12584096 -0.008580065 0.3003023 0.2230817 -0.025740195 -0.263122
-0.36036274 -0.25168192 -0.11154085 -0.30888236 0.117260896 0.34606263 -0.025740195 0.2488219
-0.34034258 0.20592156 -0.1458611 -0.23452179 0.2774221 0.20592156 -0.008580065 -0.008580065
-0.26598203 -0.25740197 -0.34892267 0.2745621 0.15444118 -0.060060456 0.1830414 -0.16016123
-0.01716013 -0.117260896 -0.040040307 -0.022880174 0.20306155 0.09438072 -0.022880174 0.28314215
-0.3289025 -0.04862037 0.15158115 0.117260896 -0.10296078 -0.025740195 0.025740195 -0.13442102

tfl.pseudo_qconst3 i1 [64, 32] scale=0.0014410345 zero_point=0
00000000: f53a 1742 da2a 27f0 75b8 c007 e33d d819
00000010: 5dc2 e4c4 0fe0 c8fc 1d23 12f4 5de6 1912
00000020: ff12 c72e d01c f5ec dec7 1709 523d 4352
00000030: e2d3 261f 1de0 cb31 36c9 e9f7 494d 10f8
00000040: f309 06e4 47d4 bf05 4fd6 4a05 0f2f c138
00000050: 1acd 0812 3221 e61d fa07 fcf6 19d3 5311
00000060: d537 f72e f4c9 34f6 c3c8 c6f7 c1d5 cf6a
00000070: 202a 05cf 29c4 fbdb 3468 1e15 1d50 63f2
00000080: d7e2 02f3 fe05 fcf8 08d2 111e d8e5 ffd7
00000090: 0e02 dc06 0f09 1dfc dc08 e3f0 d9da ebf0
000000a0: c7e2 fcc5 3dbf c2f1 40c3 34d5 e8f8 c623
000000b0: eab8 bde1 270c 4be6 13d5 fbd6 08f3 46c2
000000c0: 1df6 2d2e 1136 424b f1ca 2bfb e3fb 38e8
000000d0: 0437 fb0b 0dfe 403d 0439 21f9 bd0f 29cb
000000e0: cd27 31d7 4a1f f2c3 2a2c 07d5 45d1 37cc
000000f0: 2f15 2302 0d35 fad0 172e 250c 2df8 e6c4
-0.015851378 0.08358 0.033143792 0.09510828 -0.05475931 0.06052345 0.056200344 -0.023056552
0.16860104 -0.10375448 -0.09222621 0.010087241 -0.04179 0.087903105 -0.05764138 0.036025863
0.1340162 -0.08934414 -0.040348966 -0.086462066 0.021615516 -0.046113104 -0.08069793 -0.005764138
0.04179 0.050436206 0.02593862 -0.017292414 0.1340162 -0.0374669 0.036025863 0.02593862
-0.0014410345 0.02593862 -0.08213896 0.066287585 -0.069169655 0.040348966 -0.015851378 -0.02882069
-0.048995174 -0.08213896 0.033143792 0.01296931 0.11816483 0.087903105 0.09654931 0.11816483
-0.043231033 -0.06484655 0.05475931 0.04467207 0.04179 -0.046113104 -0.07637483 0.07061069
0.07781586 -0.0792569 -0.033143792 -0.01296931 0.105195515 0.11095966 0.023056552 -0.011528276
-0.01873345 0.01296931 0.008646207 -0.040348966 0.10231345 -0.063405514 -0.09366724 0.0072051724
0.11384173 -0.06052345 0.106636554 0.0072051724 0.021615516 0.067728624 -0.090785176 0.08069793
0.0374669 -0.07349276 0.011528276 0.02593862 0.07205173 0.04755414 -0.0374669 0.04179
-0.008646207 0.010087241 -0.005764138 -0.014410345 0.036025863 -0.06484655 0.11960586 0.024497587
-0.061964482 0.0792569 -0.01296931 0.066287585 -0.017292414 -0.0792569 0.0749338 -0.014410345
-0.087903105 -0.08069793 -0.08358 -0.01296931 -0.090785176 -0.061964482 -0.07061069 0.15274966
0.046113104 0.06052345 0.0072051724 -0.07061069 0.059082415 -0.086462066 -0.0072051724 -0.053318277
0.0749338 0.1498676 0.043231033 0.030261725 0.04179 0.11528276 0.14266242 -0.020174483
-0.059082415 -0.043231033 0.002882069 -0.01873345 -0.002882069 0.0072051724 -0.005764138 -0.011528276
0.011528276 -0.066287585 0.024497587 0.043231033 -0.05764138 -0.03890793 -0.0014410345 -0.059082415
0.020174483 0.002882069 -0.05187724 0.008646207 0.021615516 0.01296931 0.04179 -0.005764138
-0.05187724 0.011528276 -0.04179 -0.023056552 -0.056200344 -0.05475931 -0.030261725 -0.023056552
-0.08213896 -0.043231033 -0.005764138 -0.085021034 0.087903105 -0.09366724 -0.08934414 -0.021615516
0.09222621 -0.087903105 0.0749338 -0.061964482 -0.034584828 -0.011528276 -0.08358 0.050436206
-0.031702757 -0.10375448 -0.09654931 -0.04467207 0.056200344 0.017292414 0.108077586 -0.0374669
0.027379654 -0.061964482 -0.0072051724 -0.06052345 0.011528276 -0.01873345 0.10087241 -0.08934414
0.04179 -0.014410345 0.06484655 0.066287585 0.024497587 0.07781586 0.09510828 0.108077586
-0.021615516 -0.07781586 0.061964482 -0.0072051724 -0.04179 -0.0072051724 0.08069793 -0.034584828
0.005764138 0.0792569 -0.0072051724 0.015851378 0.01873345 -0.002882069 0.09222621 0.087903105
0.005764138 0.08213896 0.04755414 -0.010087241 -0.09654931 0.021615516 0.059082415 -0.07637483
-0.07349276 0.056200344 0.07061069 -0.059082415 0.106636554 0.04467207 -0.020174483 -0.087903105
0.06052345 0.063405514 0.010087241 -0.061964482 0.09943138 -0.067728624 0.0792569 -0.0749338
0.067728624 0.030261725 0.050436206 0.002882069 0.01873345 0.07637483 -0.008646207 -0.069169655
0.033143792 0.066287585 0.053318277 0.017292414 0.06484655 -0.011528276 -0.0374669 -0.086462066

tfl.pseudo_qconst5 i1 [32, 1, 1, 32]
00000000: 37ce 5c7b 5200 b427 cd45 daba e638 3ad6
00000010: fbf2 26dc f70e 1824 1034 2a7f d6cc da30
00000020: 9afb 63ad c6c7 731d 7f92 d89d 462d 07ef
00000030: 5264 ab9d 0aee 1e50 fabb 4538 ba5c 351b
00000040: 85c1 2b21 1efc 0e26 0ec3 4b07 2e63 3757
00000050: 62a6 4ca0 9aeb 1571 f1df c9a3 287f 44e6
00000060: 1116 212e b236 649a c10a 87fa 1a67 3181
00000070: 32dc 61e1 5ef1 05e0 bc8a 1e60 026f 515f
00000080: bf6b 3773 5cad 7f0b bf2e 0927 f23e 3d37
00000090: 4a23 b256 796c 5763 7524 d5c5 721c 2448
000000a0: 6aac 0c81 a5a5 29b8 a0b2 0f6a edcd 38b8
000000b0: 16fd 8949 a947 e5d4 169a a005 22a4 e29e
000000c0: a15d e1f1 1f5e 0744 17a5 ddbe 4add 3a2b
000000d0: efd5 b260 1145 2e47 cf78 378c fbc6 d381
000000e0: 7ffa 56dc 22be 0f51 23c2 5326 400a b50c
000000f0: d755 9820 31c2 d7d3 315e e407 4adc 578b
55 -50 92 123 82 0 -76 39
-51 69 -38 -70 -26 56 58 -42
-5 -14 38 -36 -9 14 24 36
16 52 42 127 -42 -52 -38 48
-102 -5 99 -83 -58 -57 115 29
127 -110 -40 -99 70 45 7 -17
82 100 -85 -99 10 -18 30 80
-6 -69 69 56 -70 92 53 27
-123 -63 43 33 30 -4 14 38
14 -61 75 7 46 99 55 87
98 -90 76 -96 -102 -21 21 113
-15 -33 -55 -93 40 127 68 -26
17 22 33 46 -78 54 100 -102
-63 10 -121 -6 26 103 49 -127
50 -36 97 -31 94 -15 5 -32
-68 -118 30 96 2 111 81 95
-65 107 55 115 92 -83 127 11
-65 46 9 39 -14 62 61 55
74 35 -78 86 121 108 87 99
117 36 -43 -59 114 28 36 72
106 -84 12 -127 -91 -91 41 -72
-96 -78 15 106 -19 -51 56 -72
22 -3 -119 73 -87 71 -27 -44
22 -102 -96 5 34 -92 -30 -98
-95 93 -31 -15 31 94 7 68
23 -91 -35 -66 74 -35 58 43
-17 -43 -78 96 17 69 46 71
-49 120 55 -116 -5 -58 -45 -127
127 -6 86 -36 34 -66 15 81
35 -62 83 38 64 10 -75 12
-41 85 -104 32 49 -62 -41 -45
49 94 -28 7 74 -36 87 -117

tfl.pseudo_qconst7 i1 [1, 3, 3, 32]
00000000: 18bc 2fdf 35c3 d598 4df5 469c 3840 f58c
00000010: fdab 4124 a48a 2deb db03 4f16 9d87 e826
00000020: d1fd e66b 3d50 48c1 5936 f59d 81fa 7181
00000030: 7f97 817f 4389 7f7f 08e2 3981 d47f ea4c
00000040: 66df 0ed0 f402 31a4 23fa f59d 977f c840
00000050: a8fa df7b 810a 93d7 6d7f 3637 3398 72c8
00000060: 3590 425b 831f c54e 6481 fb2e e8ed 9fe1
00000070: 3305 e1d1 e59e ea46 1a0e 4303 b2d8 3a3a
00000080: cf7f 4f1c 7af6 3bda 0b1d 000e 2166 a603
00000090: 5c81 bc2b 15ab 7bda 1edd 60c1 eef9 4408
000000a0: 57b2 8120 47da 051b 39f1 8172 dbea 690a
000000b0: a235 310a d2b6 c84b 3738 8c3e 2d28 d61e
000000c0: 1482 ae7f fd81 817f 7f8f 16c3 22e8 b245
000000d0: 5557 19a6 fd56 9938 e5c9 81da ebc1 5909
000000e0: 8e26 531c 5541 2508 1072 9785 e9cb 974a
000000f0: b546 5907 317f bb6f ccea f1bc 81c2 7f81
24 -68 47 -33 53 -61 -43 -104
77 -11 70 -100 56 64 -11 -116
-3 -85 65 36 -92 -118 45 -21
-37 3 79 22 -99 -121 -24 38
-47 -3 -26 107 61 80 72 -63
89 54 -11 -99 -127 -6 113 -127
127 -105 -127 127 67 -119 127 127
8 -30 57 -127 -44 127 -22 76
102 -33 14 -48 -12 2 49 -92
35 -6 -11 -99 -105 127 -56 64
-88 -6 -33 123 -127 10 -109 -41
109 127 54 55 51 -104 114 -56
53 -112 66 91 -125 31 -59 78
100 -127 -5 46 -24 -19 -97 -31
51 5 -31 -47 -27 -98 -22 70
26 14 67 3 -78 -40 58 58
-49 127 79 28 122 -10 59 -38
11 29 0 14 33 102 -90 3
92 -127 -68 43 21 -85 123 -38
30 -35 96 -63 -18 -7 68 8
87 -78 -127 32 71 -38 5 27
57 -15 -127 114 -37 -22 105 10
-94 53 49 10 -46 -74 -56 75
55 56 -116 62 45 40 -42 30
20 -126 -82 127 -3 -127 -127 127
127 -113 22 -61 34 -24 -78 69
85 87 25 -90 -3 86 -103 56
-27 -55 -127 -38 -21 -63 89 9
-114 38 83 28 85 65 37 8
16 114 -105 -123 -23 -53 -105 74
-75 70 89 7 49 127 -69 111
-52 -22 -15 -68 -127 -62 127 -127

tfl.pseudo_qconst9 i1 [32, 1, 1, 16]
00000000: 47d8 5a63 a27b 1395 3a72 ab48 5381 ee03
00000010: 81e3 a91b 9bf4 95d0 3254 36ed 69ea 4f69
00000020: 12b9 daba 5e7c b733 bf0a 08cf ee53 810d
00000030: 81d3 9eb3 e193 ab24 353d 0874 f482 3191
00000040: 19dc 8eef 9de4 7f8b d03a c072 2917 ac27
00000050: 4208 2531 dcb6 f927 d53d abc0 9546 767f
00000060: 811e a476 01a8 46f1 5d47 1857 6cec c440
00000070: 97d9 7e03 5020 f8d7 bd96 df5a d684 2e7f
00000080: cb45 fe53 41a0 aa47 e99e f444 b57f 0908
00000090: baa2 4ad3 db27 730e 0181 c26c 6a51 60bf
000000a0: 7e18 7ff1 1c23 7021 6efc 48af 8cd7 e3b6
000000b0: 6cb0 22f8 0a2c 0cbf 43c1 c4eb c365 7fd3
000000c0: 08c1 ecff 1223 aa74 e3b0 e581 fa99 7fe1
000000d0: 0577 5f4a b7f3 722f 2d7f 52d9 343b 927e
000000e0: d0fd 0956 79f0 0810 2533 a14f 0b13 7f34
000000f0: c562 ed95 5a1b 9e31 36a9 f939 287f 0d5a
71 -40 90 99 -94 123 19 -107
58 114 -85 72 83 -127 -18 3
-127 -29 -87 27 -101 -12 -107 -48
50 84 54 -19 105 -22 79 105
18 -71 -38 -70 94 124 -73 51
-65 10 8 -49 -18 83 -127 13
-127 -45 -98 -77 -31 -109 -85 36
53 61 8 116 -12 -126 49 -111
25 -36 -114 -17 -99 -28 127 -117
-48 58 -64 114 41 23 -84 39
66 8 37 49 -36 -74 -7 39
-43 61 -85 -64 -107 70 118 127
-127 30 -92 118 1 -88 70 -15
93 71 24 87 108 -20 -60 64
-105 -39 126 3 80 32 -8 -41
-67 -106 -33 90 -42 -124 46 127
-53 69 -2 83 65 -96 -86 71
-23 -98 -12 68 -75 127 9 8
-70 -94 74 -45 -37 39 115 14
1 -127 -62 108 106 81 96 -65
126 24 127 -15 28 35 112 33
110 -4 72 -81 -116 -41 -29 -74
108 -80 34 -8 10 44 12 -65
67 -63 -60 -21 -61 101 127 -45
8 -63 -20 -1 18 35 -86 116
-29 -80 -27 -127 -6 -103 127 -31
5 119 95 74 -73 -13 114 47
45 127 82 -39 52 59 -110 126
-48 -3 9 86 121 -16 8 16
37 51 -95 79 11 19 127 52
-59 98 -19 -107 90 27 -98 49
54 -87 -7 57 40 127 13 90

tfl.pseudo_qconst11 i1 [1, 3, 3, 16]
00000000: 51e9 ac2b a505 2425 49c7 993c 47bd 5d4a
00000010: 54c8 8de9 5d42 875d f40a 1278 d26c d956
00000020: 7f7d 3622 b984 3be4 8108 7f4c 4622 25e5
00000030: 26f3 2255 1748 e381 93f3 59d6 5381 e17f
00000040: 2a05 741a 8837 8152 d4c3 ed7f 8153 b5e0
00000050: 2672 f9eb 73c3 f59b f276 e870 862d 32e1
00000060: be10 88d0 1d23 13ae a6bb 56bd a41b 8455
00000070: 2781 8181 81d3 1b60 cb81 2d77 815c 8cc1
00000080: 4ea1 045b 4b81 693f 2352 e2e1 5194 81f4
81 -23 -84 43 -91 5 36 37
73 -57 -103 60 71 -67 93 74
84 -56 -115 -23 93 66 -121 93
-12 10 18 120 -46 108 -39 86
127 125 54 34 -71 -124 59 -28
-127 8 127 76 70 34 37 -27
38 -13 34 85 23 72 -29 -127
-109 -13 89 -42 83 -127 -31 127
42 5 116 26 -120 55 -127 82
-44 -61 -19 127 -127 83 -75 -32
38 114 -7 -21 115 -61 -11 -101
-14 118 -24 112 -122 45 50 -31
-66 16 -120 -48 29 35 19 -82
-90 -69 86 -67 -92 27 -124 85
39 -127 -127 -127 -127 -45 27 96
-53 -127 45 119 -127 92 -116 -63
78 -95 4 91 75 -127 105 63
35 82 -30 -31 81 -108 -127 -12

tfl.pseudo_qconst13 i1 [16, 1, 1, 16]
00000000: cda6 cb59 18de bb7f 0afa f6da 9546 6c5c
00000010: 45a7 0906 937f d8c2 5843 0ac5 a5f2 0665
00000020: 8118 f6b2 1d5d 262a 34be fce8 f1eb 3670
00000030: 0fab 54de e4c9 2d08 c137 c4e4 8132 4309
00000040: bd2c 326f 812f fb5a 05b9 0bb7 08df 2e01
00000050: 0e2f 620e 28d0 df1f 727f 6770 a91b 532f
00000060: 5365 b981 7919 d63c b33c 2ca2 0e13 4bb9
00000070: ba7f 9730 28d8 0e16 4695 f8dd 6ec2 7976
00000080: 89db e62a a006 8659 c97f 70d7 18e6 4049
00000090: 4029 6884 2cb3 8888 b07f 176c 7975 88e0
000000a0: 5daf 9995 defa 896f 73b6 81fd 128d cf21
000000b0: 52f9 4de8 b688 e24b f5e3 aa7f 1106 f090
000000c0: fbeb 0c0c 68ab 4b8b 889e 9e81 ab31 e22f
000000d0: d1e9 2827 2b63 d197 81d0 9821 0d85 16d1
000000e0: 3ea0 1523 741d 1545 a429 e70d 7f66 c42c
000000f0: c41c 2785 e375 1b9d 942d 84e1 7221 d081
-51 -90 -53 89 24 -34 -69 127
10 -6 -10 -38 -107 70 108 92
69 -89 9 6 -109 127 -40 -62
88 67 10 -59 -91 -14 6 101
-127 24 -10 -78 29 93 38 42
52 -66 -4 -24 -15 -21 54 112
15 -85 84 -34 -28 -55 45 8
-63 55 -60 -28 -127 50 67 9
-67 44 50 111 -127 47 -5 90
5 -71 11 -73 8 -33 46 1
14 47 98 14 40 -48 -33 31
114 127 103 112 -87 27 83 47
83 101 -71 -127 121 25 -42 60
-77 60 44 -94 14 19 75 -71
-70 127 -105 48 40 -40 14 22
70 -107 -8 -35 110 -62 121 118
-119 -37 -26 42 -96 6 -122 89
-55 127 112 -41 24 -26 64 73
64 41 104 -124 44 -77 -120 -120
-80 127 23 108 121 117 -120 -32
93 -81 -103 -107 -34 -6 -119 111
115 -74 -127 -3 18 -115 -49 33
82 -7 77 -24 -74 -120 -30 75
-11 -29 -86 127 17 6 -16 -112
-5 -21 12 12 104 -85 75 -117
-120 -98 -98 -127 -85 49 -30 47
-47 -23 40 39 43 99 -47 -105
-127 -48 -104 33 13 -123 22 -47
62 -96 21 35 116 29 21 69
-92 41 -25 13 127 102 -60 44
-60 28 39 -123 -29 117 27 -99
-108 45 -124 -31 114 33 -48 -127

tfl.pseudo_qconst15 i1 [1, 3, 3, 16]
00000000: 4fcb 61eb acb1 5fa8 7f9f 4afb e5dc 5f64
00000010: 2a3e ed97 181a e700 507f 650c a330 0250
00000020: 4381 7f4b a7f1 3f18 f224 837f 3957 93d9
00000030: d42c 33f6 2fe1 812a fa5f 547d 5ede 0963
00000040: 8116 41d0 81af 2f81 a801 bfc7 81ec 7f68
00000050: ff23 2b16 9281 a94b 9022 72e4 65a0 54f4
00000060: ba73 aff9 2d59 1c3e e63e 8130 ec7f 16b7
00000070: 2a13 e3de 8b06 c9c4 961d df4f 6bef 7ff4
00000080: 22a0 6481 851f 430c 7cf6 0f43 99ac ef7f
79 -53 97 -21 -84 -79 95 -88
127 -97 74 -5 -27 -36 95 100
42 62 -19 -105 24 26 -25 0
80 127 101 12 -93 48 2 80
67 -127 127 75 -89 -15 63 24
-14 36 -125 127 57 87 -109 -39
-44 44 51 -10 47 -31 -127 42
-6 95 84 125 94 -34 9 99
-127 22 65 -48 -127 -81 47 -127
-88 1 -65 -57 -127 -20 127 104
-1 35 43 22 -110 -127 -87 75
-112 34 114 -28 101 -96 84 -12
-70 115 -81 -7 45 89 28 62
-26 62 -127 48 -20 127 22 -73
42 19 -29 -34 -117 6 -55 -60
-106 29 -33 79 107 -17 127 -12
34 -96 100 -127 -123 31 67 12
124 -10 15 67 -103 -84 -17 127

tfl.pseudo_qconst17 i1 [16, 10, 4, 1]
00000000: c51b 3e81 1edf 9dda ae54 36e4 e512 6fb5
00000010: 3bd9 f2c9 d623 d014 3df4 33c9 cda2 b9e0
00000020: 13a7 0101 08e3 205f e6d6 cd31 fc3a c6e9
00000030: f44b fe2d 54e7 c9ec e5e1 9d16 ed4a 3110
00000040: 3b9c 3ba0 7f32 6004 e97d 88d0 0b2e c777
00000050: 094d 81c8 d067 f43a 41ea ec61 09ab 81f6
00000060: 2d75 f2d1 763a c6cb c31a 3047 bad6 da1f
00000070: c551 d89d 282a 0096 2a6e c9aa e950 7f28
00000080: d2ff 1e13 c241 d0d0 27de ead3 beb2 06ad
00000090: ae07 c1c9 1769 f6e0 3dc2 e323 f7cc 1861
000000a0: f8c8 e426 d235 08ce f5de c8a1 4522 ee40
000000b0: 1181 3819 1506 a01a fa2e 1aea 8a03 0214
000000c0: c01c 16de d298 933a 819e afde 16e4 7807
000000d0: fe59 85f5 0304 7c40 8853 03b9 e1ab 09d2
000000e0: 3c44 b18c db0b 1a4a d28a 996b 83dd 432b
000000f0: 2d2e 31d9 a62f 20c8 2d03 1e20 8141 17c9
-59 27 62 -127 30 -33 -99 -38
-82 84 54 -28 -27 18 111 -75
59 -39 -14 -55 -42 35 -48 20
61 -12 51 -55 -51 -94 -71 -32
19 -89 1 1 8 -29 32 95
-26 -42 -51 49 -4 58 -58 -23
-12 75 -2 45 84 -25 -55 -20
-27 -31 -99 22 -19 74 49 16
59 -100 59 -96 127 50 96 4
-23 125 -120 -48 11 46 -57 119
9 77 -127 -56 -48 103 -12 58
65 -22 -20 97 9 -85 -127 -10
45 117 -14 -47 118 58 -58 -53
-61 26 48 71 -70 -42 -38 31
-59 81 -40 -99 40 42 0 -106
42 110 -55 -86 -23 80 127 40
-46 -1 30 19 -62 65 -48 -48
39 -34 -22 -45 -66 -78 6 -83
-82 7 -63 -55 23 105 -10 -32
61 -62 -29 35 -9 -52 24 97
-8 -56 -28 38 -46 53 8 -50
-11 -34 -56 -95 69 34 -18 64
17 -127 56 25 21 6 -96 26
-6 46 26 -22 -118 3 2 20
-64 28 22 -34 -46 -104 -109 58
-127 -98 -81 -34 22 -28 120 7
-2 89 -123 -11 3 4 124 64
-120 83 3 -71 -31 -85 9 -46
60 68 -79 -116 -37 11 26 74
-46 -118 -103 107 -125 -35 67 43
45 46 49 -39 -90 47 32 -56
45 3 30 32 -127 65 23 -55
